metamodel/const/inic_annv3_cool_0.99693_25.34_5.58.onnx (onnx, 30861 bytes, 5 tensors)

dense_17_1/kernel:0 f4 [60, 1]
000000 1a 2a 83 42 7d 75 76 42 6b d1 ab 42 15 54 87 42
       65.58223 61.614735 85.90902 67.66422
000010 12 dd 81 42 f0 3c 6a 42 90 e2 8f 42 33 ab aa 42
       64.93178 58.55951 71.942505 85.33437
000020 82 f4 61 42 62 00 a9 42 24 7d aa 42 94 bc 8e 42
       56.488777 84.50075 85.244415 71.36832
000030 95 7f 93 42 2e c7 03 c1 ad cf 63 42 b0 6c 6e 42
       73.74918 -8.236128 56.95281 59.60614
000040 e7 8f 6b 42 3a a6 88 42 28 29 77 42 0e 72 6f 42
       58.89053 68.32466 61.79019 59.86138
000050 37 47 84 42 2c f2 8b 42 9f 68 8e 42 d5 26 9a 42
       66.13909 69.97299 71.20434 77.07584
000060 bb 4b 9a 42 63 f7 66 42 49 77 7f 42 ba f6 89 42
       77.14791 57.74159 63.86649 68.98189
000070 6e 97 ab 42 3f a5 10 c1 9f ae 90 42 a4 6a ad 42
       85.79576 -9.040343 72.34106 86.70828
000080 7a 10 ab 42 e2 e2 9b 42 00 71 92 42 79 2b 89 42
       85.53218 77.94313 73.2207 68.58491
000090 47 10 91 42 29 52 73 42 20 e0 83 42 c2 f1 89 42
       72.53179 60.830235 65.937744 68.97218
0000a0 bb 27 60 42 ae d8 96 42 35 aa 9e 42 e3 6a 72 42
       56.0388 75.4232 79.332436 60.60438
0000b0 ea 4a 80 42 71 cb 06 c1 df c3 8a 42 23 46 3d c1
       64.14632 -8.424668 69.38256 -11.829623
0000c0 de 73 8c 42 b4 e5 1a c1 3d f8 82 42 27 d9 95 42
       70.2263 -9.68108 65.48484 74.924126
0000d0 1a b6 79 42 bb c5 8f 42 7c 9b 8b 42 ee 5a a2 42
       62.427834 71.88619 69.80368 81.1776
0000e0 fe 3a 67 42 30 c9 84 42 af f6 09 c1 a5 be 12 c1
       57.80761 66.392944 -8.6227255 -9.171544

dense_16_1/kernel:0 f4 [60, 60]
000000 6c 76 43 be eb 32 42 3e d2 e5 7f bf 87 db f4 bd
       -0.19088143 0.18964736 -0.9996005 -0.11955934
000010 1f 3a ff 3e 03 9b 49 3f 45 d0 3a 3e 4c cb a4 bf
       0.4984903 0.78752154 0.18243511 -1.2874541
000020 19 5d 20 40 3b 6b ac bf f0 e9 93 bf 82 b1 ee bc
       2.5056822 -1.3470224 -1.1555767 -0.029137377
000030 d8 8c 67 bf b1 51 43 3f 9d fd 1e 40 db c8 04 40
       -0.90449286 0.76296526 2.4842293 2.0747592
000040 3d 92 77 3f 5d 56 64 bd ef a0 d0 3f 19 76 69 3f
       0.96707517 -0.055746425 1.6299113 0.9119583
000050 81 0b b4 3a 6d 71 57 bf cf 69 82 be 66 a5 fc bf
       0.0013736339 -0.8415745 -0.2547135 -1.9737976
000060 5d cb c6 bf 89 5c 07 40 e3 47 ed 3e 30 89 ee 3e
       -1.5530812 2.115023 0.46343908 0.4658904
000070 e9 9d a9 bf 24 4f db 3e 4d 04 04 3e c4 db 7a bf
       -1.3251315 0.42833817 0.12892266 -0.97991586
000080 8a 61 81 bf d8 d1 81 bf 4b 8e 9a bf 1e 0b 57 3f
       -1.0107892 -1.0142164 -1.2074674 0.8400134
000090 6d f2 d6 be 17 5f 3f 3f 81 67 1b bf 88 90 0b 3f
       -0.4198183 0.7475447 -0.6070481 0.5451741
0000a0 e3 12 cc 3f d4 37 8a bf f1 fe 77 bf 13 ea 80 3f
       1.5943264 -1.0798287 -0.96873385 1.0071434
0000b0 be 65 64 3f 2d 84 e9 3f ba 38 00 bf c2 8e 93 bf
       0.89217746 1.8243462 -0.5008656 -1.1527941
0000c0 dd 36 38 bf 45 bc 3e 3e 1a 04 b1 3e d1 b5 89 be
       -0.71958715 0.18626507 0.34573442 -0.26896527
0000d0 15 db 47 3f d4 2b 0b 3f 0b ae a7 be 19 cc 0b bf
       0.7806867 0.5436375 -0.32749972 -0.54608303
0000e0 fc d7 c7 3f 89 b1 60 3f d6 ee 4e 3f e5 a9 c9 3e
       1.5612788 0.877709 0.80833185 0.39387432
0000f0 c2 be 45 3f 44 4f 60 40 47 dd 94 40 ab 3f bf 3f
       0.772442 3.504838 4.6520114 1.4941305
000100 c8 71 95 3d 27 52 89 40 15 2d 6d 40 76 3f 75 40
       0.07297093 4.2912784 3.7058766 3.8319983
000110 13 50 91 40 87 cf 85 40 48 9d 78 40 1f e0 a8 3f
       4.5410247 4.181583 3.8845997 1.3193396
000120 4c 05 5f 3f f8 bb 6f c0 69 be 18 40 43 8e b8 bf
       0.8711746 -3.7458477 2.3866217 -1.4418415
000130 93 54 f4 3e fe f5 0e 40 25 c0 a3 3f ab f0 30 40
       0.47720775 2.2337642 1.2793013 2.7646892
000140 06 88 3d 3f fd 46 71 3f d0 2d a0 3f 5c 3e 8c 40
       0.7403568 0.94248945 1.2513981 4.382612
000150 e9 8b 68 40 d0 19 dc 3f 65 8b 3e 3d c1 45 a1 3f
       3.6335394 1.7195377 0.046519656 1.2599412
000160 a6 5c 8a 40 8a 88 cd bf dc 27 41 3e e5 79 8b 40
       4.3238096 -1.6057293 0.18862861 4.3586297
000170 87 3b 59 40 c5 dc 49 40 05 25 03 40 7e 04 83 40
       3.3942583 3.1540997 2.0491345 4.0942984
000180 70 c4 65 bc 6e d3 f1 3f ed d9 89 3f 8c a9 17 bd
       -0.014023885 1.8892648 1.0769631 -0.037026927
000190 db e5 f0 3f 9d 72 32 40 e7 06 0f 40 f7 eb a6 3c
       1.8820146 2.7882454 2.2347963 0.020376189
0001a0 92 15 1d 40 7c 1a 56 c0 12 2a dc 3f 39 f4 3b c0
       2.4544415 -3.3453665 1.7200339 -2.9367812
0001b0 f3 61 e8 3f 5e f3 6a c0 ea 27 3f be 99 3e 9a 40
       1.8154892 -3.671104 -0.1866757 4.8201413
0001c0 cf 83 e9 3f 21 21 19 c0 0e e5 f8 3f 2f e3 3c 40
       1.824335 -2.392647 1.9444902 2.9513662
0001d0 f7 c4 2b 3f 67 16 ce 3f 3d 02 27 c0 ce c5 6d 3f
       0.6709742 1.6100587 -2.6095116 0.9287995
0001e0 10 6c a5 3f e6 af c7 be dd b2 81 40 3f a3 8f 3f
       1.2923603 -0.39001387 4.053084 1.1221694
0001f0 72 97 97 bf 55 95 2e bf 26 d1 42 bf eb ac a1 40
       -1.1843092 -0.6819661 -0.76100385 5.052358
000200 e4 2d b3 3e 0c 22 9e 40 a9 e0 a7 40 df e9 2e 40
       0.3499595 4.941656 5.2461743 2.7330244
000210 3e 6e 38 40 67 00 2c bf 9a 40 85 be 52 43 37 3f
       2.8817286 -0.67188114 -0.2602585 0.715871
000220 87 82 8e be ea bd 11 c0 a1 56 d4 3e 7c 99 b8 3e
       -0.2783396 -2.2772164 0.41472343 0.360546
000230 a0 e1 bd 3e 3a 7c 23 3f 6d 8b f4 3f 9f 91 03 40
       0.370862 0.6386143 1.9105049 2.055763
000240 80 a8 92 40 12 3a 0c 3f 5e b9 12 bf ea 40 65 3f
       4.583069 0.5477611 -0.573141 0.89552176
000250 fc 0f 9b 40 41 c6 55 c0 ff cb 3d 40 97 2e a5 40
       4.845701 -3.3402255 2.965576 5.161937
000260 c1 a1 a9 40 c7 58 08 3f 08 ba af 3f be 02 51 bf
       5.3009953 0.53260463 1.3728647 -0.8164481
000270 8c 99 59 40 32 21 09 bf 70 1e 05 3f 31 d2 74 bf
       3.3999968 -0.5356628 0.5199957 -0.95633227
000280 2f 2d 01 3f 1b 13 33 be 77 a5 92 c0 af a3 ed 3e
       0.5045957 -0.17487757 -4.5826983 0.46413943
000290 56 db 03 c0 1e 35 cd 40 68 44 c3 3d 13 31 9a 3f
       -2.0602622 6.412734 0.09534532 1.2046226
0002a0 c3 6e fe be ea 43 1a c0 a5 48 39 be 27 2b 96 3f
       -0.4969388 -2.4103951 -0.18094118 1.1731919
0002b0 ad 6c db 3c 0f a0 b7 3d 11 9d 4c 3f fd c0 e9 3f
       0.02678522 0.08966076 0.79927164 1.826202
0002c0 65 40 dc be e9 32 02 bf 21 79 24 c0 cd 9f 23 3e
       -0.4301788 -0.5085893 -2.5698931 0.15978928
0002d0 12 57 e9 3e f3 98 6e 3f 78 d4 88 3f b9 87 23 3f
       0.45574242 0.9320213 1.068984 0.6387897
0002e0 eb 9e 85 3e ce d2 71 3f 3b 57 bc 3f d6 1b 36 3f
       0.26097807 0.9446229 1.4714121 0.71136224
0002f0 ca 02 80 bf a8 fb 0e 3f 62 61 f7 3e 7e a2 73 3f
       -1.0000851 0.55852747 0.48316485 0.9516982
000300 ed d9 59 3f ee 4c b5 bf ca c4 b1 3f 15 1b 2e 3f
       0.85098153 -1.4164102 1.388818 0.68010074
000310 f4 a8 94 3f 9c dc 82 3f 65 f7 e5 3f 45 08 e7 3e
       1.161406 1.0223575 1.7966124 0.45123497
000320 0e 23 f1 3f 8a 41 c0 3f 24 3d 31 3f 9a 27 a0 3f
       1.8838823 1.5020001 0.6923392 1.2512085
000330 1b 06 83 3f fb cb 37 40 7a cb 8f 3e 35 20 62 bc
       1.0236238 2.871825 0.28084928 -0.013801624
000340 57 3a 56 3f 28 3f 8e be a5 3f 0d 3f 6d 5b 70 3f
       0.8368277 -0.2778256 0.5517524 0.93889505
000350 24 43 ed 3e 8e 3f af 3f ab 83 67 3f 11 bf 8f 3e
       0.46340287 1.369127 0.90435284 0.2807546
000360 12 77 8c 3f da 7a a4 3f 52 d7 83 3b 24 55 e2 be
       1.0973837 1.2849991 0.004023471 -0.44205582
000370 d2 3e 6f 3f fd bb 86 3f 7f 6a a2 3f db 4b 88 3f
       0.9345523 1.052612 1.268875 1.0648149
000380 4c 7d 98 3f 72 f5 ec bf 77 75 67 3f 03 9d f0 3d
       1.1913238 -1.8512404 0.9041361 0.117486976
000390 34 72 7a 3f 4e cd 5a 3e ed 89 3f 3f 54 89 9c 3f
       0.9783051 0.2136738 0.74819833 1.2229409
0003a0 42 d3 e1 3e 05 b7 04 3f ca 48 99 3f 7b 5c 15 3f
       0.4410649 0.51841766 1.1975338 0.5834424
0003b0 47 e7 73 3e c4 6f a2 3f 74 bc e9 be 3d 0d 83 bf
       0.23818694 1.2690358 -0.4565159 -1.0238415
0003c0 70 c0 c6 3f bd d1 fb 3f 39 fb 80 3f 6c ec 39 3f
       1.5527477 1.9673382 1.0076667 0.72626376
0003d0 3d 5b a1 3f 47 ab 2c 40 33 5d 55 bf 56 cb 85 3f
       1.2605969 2.697954 -0.83345336 1.0452678
0003e0 9a 10 7b 40 e9 62 9e 3f da e4 86 3f d4 12 a1 3e
       3.9228883 1.2373935 1.053859 0.31459677
0003f0 a2 4f 63 3f 94 08 3b bf 98 dc 02 41 cb 38 16 40
       0.88793385 -0.73059964 8.178856 2.3472164

dense_16_1/bias:0 f4 [60]
000000 6b ea ae be 89 58 03 bf 62 41 83 bf e9 c7 e2 be
       -0.34163222 -0.5130697 -1.0254328 -0.44293144
000010 23 0c a5 be b4 8c a8 be b8 36 27 bf 71 e1 7f bf
       -0.32235822 -0.32919848 -0.6531787 -0.9995337
000020 68 4a 6f bd 7b b3 5e bf 72 cd 71 bf cc 2c e5 be
       -0.05842057 -0.86992615 -0.9445411 -0.4476074
000030 e4 92 0d bf 24 1c 29 3f 05 3f 83 be a6 4a e4 be
       -0.5530226 0.66058564 -0.25634018 -0.44588202
000040 a4 89 ec be 1c d0 1b bf 06 82 28 bf 69 1d 04 bf
       -0.4619876 -0.60864425 -0.658234 -0.51607376
000050 8a e9 c7 be 14 f1 e7 be 3a 26 15 bf e6 dd 13 bf
       -0.39045364 -0.45301116 -0.58261454 -0.57760465
000060 03 79 06 bf f2 a3 97 be e8 9a de be 48 f6 bc be
       -0.525284 -0.29617268 -0.4347756 -0.36906648
000070 86 b1 67 bf f8 50 71 3e c8 04 be be 1f 62 81 bf
       -0.90505254 0.23566043 -0.37113023 -1.0108069
000080 8d c2 72 bf d0 1f 1f bf 20 38 06 bf 63 bf 1e bf
       -0.9482811 -0.6215792 -0.5242939 -0.6201078
000090 bb 8a c8 be c1 27 f4 be 0e 78 29 be 71 6d ea be
       -0.39168343 -0.4768658 -0.16549703 -0.45786622
0000a0 bd 09 76 3d a1 af 12 bf e7 a5 2c bf 08 1b b4 be
       0.06006788 -0.5729924 -0.67440647 -0.35176873
0000b0 7c 9e 27 bf 59 51 37 3f 7e cc 0a bf 0d 9c 1a 3f
       -0.654762 0.716085 -0.5421828 0.60394365
0000c0 ae d9 16 bf 6e 65 f8 3d a3 25 14 bf 9b d7 25 bf
       -0.589259 0.12128721 -0.5786993 -0.6478211
0000d0 17 03 e0 be 01 ff 0d bf 32 34 ef be 4e ff 60 bf
       -0.43752357 -0.5546723 -0.4671951 -0.87889564
0000e0 c2 71 01 bf 91 50 14 bf 6b a4 01 3f af 51 0e 3f
       -0.50564206 -0.57935435 0.50641507 0.5559339

dense_15_1/kernel:0 f4 [62, 60]
000000 59 1d 10 bf 96 f1 3f 3f df 3c 36 bd 9d 28 2d 3e
       -0.5629478 0.74978006 -0.044491645 0.16910024
000010 b5 00 af 3d 04 0f 59 bf 65 8e 81 be 57 7c 23 bf
       0.08545057 -0.8478854 -0.2530395 -0.638616
000020 d5 16 e2 be 30 bf d6 3f 8d 84 19 3f 00 1a 94 be
       -0.44158044 1.6777096 0.5996788 -0.28926086
000030 fa ec 77 3d 69 bc 3a 3d b9 22 9f be d5 d6 c1 3e
       0.060528733 0.04558984 -0.3108118 0.37859216
000040 b7 6c 2d be bf 69 65 be 57 ca 0c 3e bb f0 93 be
       -0.16936003 -0.2240362 0.13749062 -0.288946
000050 be 97 4a bf 34 ea 54 3e 14 97 5b 3f 3e 3f 8c 3e
       -0.7913779 0.20792466 0.857774 0.27392
000060 a6 26 b0 3d 33 76 74 3d 4f 2f ea 3e 32 7a 16 be
       0.086011216 0.059683036 0.4573922 -0.14695051
000070 ea ee 19 3e 43 bd d8 bd 84 b7 66 bd 3b 4e 95 be
       0.15032545 -0.10582974 -0.056327358 -0.29161248
000080 f1 c6 0a 3f 5b 08 9a 3d cc ad 48 3e 3c 51 1f be
       0.5420981 0.07521125 0.19597548 -0.15558332
000090 54 52 67 bf 95 10 23 bf 1e 78 cc bd bf 61 01 bf
       -0.9036 -0.6369718 -0.09983848 -0.50539774
0000a0 70 14 00 bf f1 af 35 3f 2e cb 9d bd 4b 80 18 3f
       -0.50031185 0.7097159 -0.07704769 0.5957076
0000b0 97 ec 39 bf 23 5d 62 3e 7c 0b 7d bd 3b a0 fe be
       -0.7262663 0.22105841 -0.06177853 -0.4973162
0000c0 ab 1b 9b 3e 64 61 34 bf 1d 40 64 3d 93 29 28 3e
       0.30294546 -0.70461106 0.055725206 0.1642211
0000d0 f3 97 42 be be af 0b 3f 0f 6b c7 be 5b 11 4c bf
       -0.19003277 0.54565036 -0.38948867 -0.7971398
0000e0 7c e9 11 3e ba ee 85 3e 5f 27 5a be 83 c8 26 bf
       0.14249223 0.26158696 -0.21304081 -0.65149707
0000f0 b1 94 ce bd cd 1d b3 be da b7 49 bf 76 24 75 3c
       -0.100869544 -0.34983674 -0.7879616 0.014962306
000100 05 96 40 bd c2 d6 25 3f 54 c3 9d 3d c6 43 6b 3e
       -0.04701807 0.6478082 0.077032715 0.22975072
000110 5b 64 30 bc b3 36 19 3c f1 33 5d 3c 42 9e fc 3d
       -0.010766114 0.00935142 0.013501153 0.12334873
000120 34 7f 66 3f 8c 83 18 be d5 f6 c6 bd e5 b2 39 bd
       0.90037847 -0.14893931 -0.09715048 -0.045336623
000130 03 87 6d 3e 98 ba ac 3c 99 33 d8 3d b4 2d 3c 40
       0.23196034 0.021085069 0.105567165 2.9402895
000140 ba d8 9a 3e 9f c0 a7 bd 75 13 5b bf 98 95 81 be
       0.30243474 -0.081910364 -0.85576564 -0.25309443
000150 b5 56 99 bd 9f ac eb bc bd b6 0d 3f ba c5 07 3e
       -0.07487241 -0.028768836 0.5535696 0.1325902
000160 47 f1 86 3d 8e 01 78 3e de 12 1a 3f 0b fa bc bd
       0.06588989 0.24219343 0.6018504 -0.092273794
000170 10 af 33 bf 9d 28 19 be c0 cb ca c0 e7 32 13 bc
       -0.70189 -0.14956899 -6.337372 -0.008984304
000180 59 2e b4 3c e4 d7 a9 3e 63 36 a3 be 3e 23 a4 3d
       0.021994757 0.33172524 -0.3187743 0.080145344
000190 a8 f1 bd 3e 6d 52 10 be 65 f2 d5 3e 87 de c2 be
       0.37098432 -0.14093943 0.41786495 -0.380604
0001a0 10 e2 5b 3f 98 d8 23 3e e1 d3 69 be 56 87 ec 40
       0.8589182 0.16000593 -0.22834732 7.3915205
0001b0 c9 16 1b bd 3f e5 5b 3e 29 01 57 3e 49 89 90 be
       -0.037863526 0.21474169 0.20996536 -0.2822974
0001c0 fe 43 e6 3e 10 13 5a c0 e1 b2 80 3e 4c 1b 44 3e
       0.4497375 -3.4074135 0.25136474 0.19151038
0001d0 95 9e 3a bd c5 1a 81 c0 0b 1a 11 bf 78 b4 cb be
       -0.04556139 -4.034518 -0.56680363 -0.39786124
0001e0 bb 55 5a 3e 1a d1 da bf 88 fd 5f 3f 41 10 5c 3d
       0.21321766 -1.7095063 0.87496233 0.05372644
0001f0 f8 6a c9 b9 e2 ea aa bc b4 15 27 bd b4 2c 78 bf
       -0.00038417405 -0.020863954 -0.040792182 -0.9694321
000200 81 f7 c8 be 0c aa 0d 3e 18 e5 19 3f 70 6d b5 3c
       -0.3925133 0.13834399 0.60115194 0.02214691
000210 45 51 5e 3e a8 e7 03 3f 11 0e 97 3c 14 7c a3 bf
       0.2171069 0.51525354 0.018439325 -1.2772241
000220 21 33 c4 bd ab 44 cd 3d 44 7e a3 3d 5c 4f d7 bd
       -0.095800646 0.10022863 0.07983068 -0.105131835
000230 43 6f 18 40 72 9c c6 bd 83 53 ad bd 7b c9 d9 3e
       2.3817909 -0.09697808 -0.08463194 0.4253653
000240 ae 69 41 bf 55 be 0d be bb 1c 39 bf c4 43 24 be
       -0.7555188 -0.13842137 -0.72309464 -0.16041476
000250 09 4f da bc 99 00 a2 be 0a db 5f 3e de 32 52 3d
       -0.026649015 -0.3164108 0.218609 0.051318042
000260 08 48 ed 3e 87 30 e7 be cf a4 85 bd 77 d0 37 3d
       0.46344018 -0.4515421 -0.06525575 0.044876542
000270 23 3a e9 3f 72 f1 9e bf 53 8f cb be 9c ff b3 3c
       1.8220867 -1.2417433 -0.39757785 0.02197247
000280 de 5a 38 bf 4a ba 5c bd 2a 59 e9 3e 2f d5 73 bf
       -0.7201365 -0.053888597 0.4557584 -0.9524717
000290 92 ff 8c bf e6 eb 1c 3e 18 e3 ef be c0 b7 9c be
       -1.1015494 0.15324363 -0.46852946 -0.3060894
0002a0 88 02 c8 3e 4c 89 26 3d 77 86 93 3c a0 a1 8c bd
       0.3906443 0.04065828 0.018008454 -0.06866765
0002b0 8b c3 75 be fb 60 d1 3f d4 d0 ab bd ff c5 83 bf
       -0.24000375 1.6357721 -0.0838944 -1.0294799
0002c0 42 85 12 bd 81 19 56 bf 90 43 48 3f 11 f7 8d 3d
       -0.035771616 -0.83632666 0.7822809 0.0693189
0002d0 d9 72 37 3d 5a 45 7b bd 3c a0 7b bf 0f c5 22 3d
       0.04478726 -0.061345436 -0.98291373 0.03973871
0002e0 6c c4 1f bc 0b f5 b0 3d 18 02 07 3e 1f de af 3f
       -0.0097514205 0.08640488 0.13184392 1.3739661
0002f0 fa 9f b0 3e dc 87 3d 3d 50 a2 a3 be 21 b9 b3 3d
       0.34497052 0.046272144 -0.31959772 0.08775545
000300 c3 5e a3 3e 94 84 80 be 05 08 56 3e 7c ac 9a 3c
       0.31908235 -0.2510115 0.20901497 0.018881075
000310 c4 04 32 bd 57 95 d5 bc 5e 57 3e bd 57 41 14 3e
       -0.043461576 -0.026072187 -0.04647004 0.1447805
000320 76 71 7e 3f a7 52 8f 3c 06 7d 82 be c2 75 11 3e
       0.9939188 0.017495466 -0.2548601 0.14205077
000330 34 10 bb bd a0 cd 0c be 2c 43 2f 3f 68 c8 28 be
       -0.0913395 -0.13750315 0.6846187 -0.16482699
000340 d3 24 8f bd f8 30 33 3d 25 21 58 3e 28 a9 3a bd
       -0.069894455 0.043747872 0.21106394 -0.045571476
000350 e0 95 01 c0 a7 24 08 3e 59 fc b9 3d ec 73 7f bd
       -2.0247726 0.13295232 0.090813346 -0.06236641
000360 48 8f 0c 3f 82 9f e4 be ea f9 28 3d 39 3a 55 bd
       0.5490613 -0.44652945 0.04125396 -0.05205748
000370 d9 00 a6 3e 3e 0c 00 3e 4b e1 9a 3e a4 a3 55 bd
       0.32422522 0.1250467 0.3025001 -0.052158013
000380 21 97 55 3f 59 34 69 be 64 0a cb 3d d3 c6 18 3f
       0.8343373 -0.22773875 0.09914091 0.5967838
000390 63 e9 4e 3d 30 e0 23 3e fa 89 0d 3d 2d c0 79 bd
       0.050515544 0.1600349 0.034555413 -0.06097429
0003a0 51 31 f8 3c 82 2a 9d 3e ea a0 a1 bc 45 b8 87 3f
       0.030296953 0.30696493 -0.01973005 1.060311
0003b0 e0 da d7 bc 3d c9 a2 3e 1b 2a e6 bc a4 7b 13 be
       -0.026349485 0.31794158 -0.02809625 -0.14402634
0003c0 58 3c b5 bd 3c 59 cb 3d 66 13 7d be df 5b 7d be
       -0.088494 0.099291295 -0.24714431 -0.24742077
0003d0 68 35 da 3c bc 63 9c bc 5e 1d 6c 3c 58 df 6e bd
       0.026636794 -0.019090526 0.014411299 -0.058318466
0003e0 d4 ec 23 3b 12 2a 1e 3d 24 87 e4 3d 4f ac 14 3d
       0.0025012987 0.03861434 0.111585885 0.03629714
0003f0 ac e1 12 be b6 76 8b bd 31 25 a0 bd 6f 72 1a 3e
       -0.143439 -0.06809752 -0.07819594 0.15082715

dense_15_1/bias:0 f4 [60]
000000 59 f3 78 3d 9d 67 2f bf c2 07 41 bf 7a e9 11 bf
       0.06077895 -0.68517476 -0.7540246 -0.5699688
000010 8c ce e3 be fc 5f 79 be 9e f9 d3 be 03 e3 30 3f
       -0.4449352 -0.24353021 -0.4140138 0.6909639
000020 25 96 41 3f 23 a0 98 bd 93 75 62 bf 1a a4 20 bf
       0.7561973 -0.07452419 -0.88460654 -0.627504
000030 af c6 62 bf 59 4d 88 bd 12 29 2e bf d1 ee fd be
       -0.8858442 -0.06655378 -0.6803142 -0.49596265
000040 bd 2b 36 bf 45 4d d1 be 41 69 b5 bc 90 e3 d0 3d
       -0.7116049 -0.40879264 -0.022144916 0.10199654
000050 b8 1c 20 3f 7a 40 c0 bc bc 93 f7 be 65 1c 1f be
       0.6254382 -0.023468245 -0.483549 -0.15538175
000060 03 b5 d9 bc f1 fc 11 bf 38 69 1a bf eb 84 56 bf
       -0.02657557 -0.5702658 -0.603168 -0.83796567
000070 9b 2c d4 be ad 14 a5 be 94 2e 78 bf c3 09 60 3e
       -0.4144028 -0.32242337 -0.9694607 0.21878724
000080 c9 8a 26 bf 41 fe 0e be 5b 95 79 bf 91 0b b8 bc
       -0.6505552 -0.13964178 -0.97493523 -0.022466453
000090 17 03 3c be ec d4 55 3e d5 11 6f bf ae 33 b5 3c
       -0.18360554 0.20882004 -0.93386585 0.02211937
0000a0 0f 77 54 3f b2 91 5c bf b2 38 4d 3d f2 49 bd be
       0.8299417 -0.86159813 0.050102897 -0.36970478
0000b0 52 ce ed bd 76 4a 6a be 4e 5d 42 bf 2a 30 40 3f
       -0.11611618 -0.22879967 -0.7592362 0.7507349
0000c0 10 4b d7 be d0 24 c8 be df 28 9f 3e dc 7e ba be
       -0.42049456 -0.39090586 0.3108587 -0.3642491
0000d0 fb f6 78 bf b0 73 4d bf af 5b bc be 7a f3 ee 3e
       -0.9725186 -0.8025465 -0.367887 0.46670133
0000e0 94 c3 e7 be 00 37 fa bc 9e 5e 24 be 62 da 32 bf
       -0.45266402 -0.030543804 -0.16051719 -0.69864476
